models/03_pytorch_computer_vision_model_2.pth (torch, 35019 bytes, 10 tensors)

block_1.0.weight f4 [10, 1, 3, 3]
000000 26 ea b4 3e 4e 55 a8 3e 4c 2f e9 be 0a 59 a5 3e
       0.3533489 0.32877582 -0.45543897 0.32294494
000010 8a 38 03 3e 33 3d 0d bd 56 8f db be 8d b3 0c 3e
       0.12814537 -0.034482192 -0.42882794 0.13740368
000020 f0 ba ad 3e 74 ec d3 be 89 29 d1 3e a4 11 83 bd
       0.33931684 -0.41391337 0.40852 -0.06399849
000030 16 2b 70 3e 16 00 a1 3e 1e c5 39 3e c5 10 33 be
       0.23453936 0.31445378 0.181416 -0.17486866
000040 b6 8f b5 3e 90 eb 3b 3e dd b9 9c be 11 a5 c2 bd
       0.35461205 0.18351579 -0.30610552 -0.0950414
000050 14 24 d9 bc 5d d7 29 bf e6 13 27 bf fa 4e 7d 3e
       -0.026506461 -0.66344243 -0.6526474 0.24737158
000060 1e 3f 52 bf 21 6c 32 bf bf b7 1a be e8 c8 50 bf
       -0.8212756 -0.6969624 -0.15109156 -0.8155656
000070 a2 6a 8c bf 52 d2 44 bf 9f d5 94 3e 65 f6 2a bf
       -1.0970042 -0.76883423 0.2906923 -0.6678222
000080 d8 b9 f3 3d 33 ff 95 3e 8b ef 19 bd 5f e8 ea 3e
       0.11900681 0.29296264 -0.03758196 0.4588041
000090 f5 5a ce bd 02 14 c4 3e fe 59 7f bd a7 d0 74 be
       -0.100759424 0.38296515 -0.062341683 -0.2390772
0000a0 05 12 8f 3e 7f b0 2a be 00 ca c5 bd 21 89 8c 3e
       0.27943435 -0.1666889 -0.09657669 0.2744837
0000b0 d4 10 4a 3e e8 53 15 be 90 c4 45 3e 57 f0 7f 3d
       0.19732982 -0.14582789 0.19313264 0.062485065
0000c0 b3 ed 2e 3e fa 97 50 be 6f c7 a8 be 27 29 00 be
       0.17082863 -0.20370474 -0.32964656 -0.12515698
0000d0 9b 25 83 be a0 39 83 3e f9 99 4e 3c da 74 09 3d
       -0.25614628 0.25629902 0.012609952 0.033558704
0000e0 41 fe 07 be e8 35 9d bc 3c d1 6e 3e 99 9c 80 be
       -0.13280584 -0.019190744 0.23322004 -0.25119475
0000f0 d6 87 78 bd 91 21 ee be 2e 9a 5c bd 85 7f a9 bd
       -0.06067642 -0.46509984 -0.053857975 -0.082762755
000100 dd 63 4e 3d 9e b5 3d be 5f 8c b0 3e 5c cb 91 be
       0.050388206 -0.18526313 0.34482095 -0.28475463
000110 e9 42 c5 be a6 e8 37 be 45 7f c2 3e 52 dd 1a 3e
       -0.3852761 -0.17959842 0.37987724 0.1512349
000120 2f eb f0 3e c1 e0 7f be 2c b5 ba be 65 1f 87 be
       0.4705443 -0.2498808 -0.36466348 -0.2639114
000130 9d 6e a0 be 03 a3 ee 3d 5e 38 73 3e 10 6e d3 3e
       -0.3133439 0.11652186 0.23751971 0.4129491
000140 fc f8 c3 bd 08 cc 68 be 90 74 33 3e 6b 32 0b be
       -0.095689744 -0.22734082 0.17524934 -0.13593452
000150 ff 30 4d 3e 11 5a a5 bd b7 da 40 3e 77 9e 84 be
       0.20038222 -0.080738194 0.18833433 -0.2590215
000160 ee 8a 2c be 7e 34 cc 3d
       -0.16849872 0.099709496

block_1.0.bias f4 [10]
000000 e6 ca 0d 3d 77 3e 18 3e 1c b8 66 3e ba 65 cd 3d
       0.034617327 0.14867578 0.2253117 0.100291684
000010 76 71 79 3d f3 cd 4b be c0 f4 3a 3e 89 27 df bd
       0.06089922 -0.19902782 0.18257427 -0.108962126
000020 12 b3 59 bd 70 71 a6 be
       -0.05314929 -0.3250842

block_1.2.weight f4 [10, 10, 3, 3]
000000 92 bd 4e 3d 69 2f b0 bc 8e 05 ab bd 03 db c2 bd
       0.050473757 -0.021506982 -0.08350669 -0.095144294
000010 c1 64 16 be e8 d3 41 be 9e 9e 88 bd 8d c1 30 be
       -0.14686872 -0.18928492 -0.06670879 -0.17261334
000020 76 93 3e be 8b aa 03 be f6 02 c4 bc 7f ef c7 bd
       -0.1861094 -0.12858026 -0.023927193 -0.09762477
000030 c6 7f e6 bd 1e 97 83 be e6 cf 59 be 5b 98 b8 bd
       -0.112548396 -0.2570123 -0.21270713 -0.090134345
000040 db 5b 22 be 22 ae 66 be b2 21 e9 3b c0 da d0 3c
       -0.15855353 -0.22527364 0.0071146125 0.025494933
000050 31 76 dd 3d 85 8a bf 3d 0c 49 63 3e da c7 36 3e
       0.10813559 0.093525924 0.22195834 0.17849675
000060 59 b8 9b bd 90 9a ff 3b 04 c9 c9 3d db ae 1d be
       -0.07603521 0.0078004077 0.09852794 -0.15398733
000070 f8 43 63 bc 5a f4 37 be 18 94 df 3c a6 95 0a bd
       -0.0138711855 -0.17964306 0.027292296 -0.033834122
000080 a6 28 2b be c5 ad 00 3e 75 24 96 bc e1 ae a3 bc
       -0.16714725 0.12566288 -0.018327931 -0.01998085
000090 7f e1 27 be 1f 6c 32 be 44 44 2d bd 4b 66 cf bd
       -0.16394614 -0.17424057 -0.04230143 -0.10126933
0000a0 04 d0 49 bd 5d e1 2d be 6c 3d 92 3d d0 20 03 be
       -0.049270645 -0.169805 0.071406215 -0.12805486
0000b0 e9 8c 0b bd 0b c9 b7 3c 2b 2d 5e 3d 36 ff ad 3d
       -0.03406993 0.022434732 0.054242294 0.08495943
0000c0 0b 81 c4 3d eb 82 ab bd ac 86 db 3c f6 45 39 bd
       0.095949255 -0.0837458 0.026797615 -0.045232736
0000d0 95 12 4d bc 8c 0e 9f bd ab fe 29 3e 02 27 2c bd
       -0.012516637 -0.077664465 0.16601054 -0.04202939
0000e0 86 3f a7 3c 1a 2a 19 3e 51 67 d0 3d bc ed f9 bc
       0.020416033 0.14957467 0.10175956 -0.030508868
0000f0 7e d8 f3 3d 8d b1 de 3c c0 fa ed bc 41 0e ac bd
       0.11906527 0.027184272 -0.029050231 -0.08401156
000100 69 aa 3f 3d 4f 8b 41 bc 8f 6f 6b bd 25 8e b6 3d
       0.046793375 -0.011812999 -0.057479437 0.08913831
000110 71 51 8f 3c 1e c6 56 bd a7 6f 78 bd 81 5c c0 bc
       0.017494889 -0.052435033 -0.060653355 -0.02348161
000120 a7 1a a4 3d f1 ac 98 bc 0c c3 48 bd a0 5e c2 bc
       0.08012896 -0.018637152 -0.049014136 -0.023726761
000130 17 ac a4 bd 26 6e 4c 3d 14 3b da 3d 46 b2 c5 bd
       -0.08040636 0.049909733 0.106557995 -0.096531436
000140 70 44 37 3c bd 0a 5f 3d 9d 7a 9c 3c 60 bb 19 bd
       0.01118575 0.0544536 0.019101435 -0.03753221
000150 33 5a 61 3d c6 e4 62 3d 28 74 21 3d d2 bc 97 bc
       0.05501766 0.055393957 0.039417416 -0.018522654
000160 c4 a8 e4 bc e7 b1 38 3c 58 1d 3d bc 8b d0 4b bd
       -0.027912505 0.011272884 -0.011542641 -0.04975943
000170 56 af 5e 3d d9 48 bc 3d a1 fe ec bc 43 66 15 bd
       0.054366432 0.09193582 -0.02893001 -0.036474477
000180 ca 1a d7 bb be 92 6d bc 06 b3 4a 3c c6 7f 8b 3c
       -0.006564473 -0.014500318 0.012371784 0.0170287
000190 58 e4 ee bd 0a 54 34 bd 2e 9a a8 3d cf 1d c7 3c
       -0.11664647 -0.04402546 0.082325324 0.024306206
0001a0 74 99 27 bc 57 cb b7 bd 45 aa b8 bd e2 2d d9 bd
       -0.010229457 -0.08974331 -0.09016851 -0.106044546
0001b0 9a 71 0f bd b3 b7 09 3d 43 c1 8f 3d c0 18 48 3d
       -0.03502045 0.033622455 0.070192836 0.04885173
0001c0 01 42 bc bd 15 45 87 bd a8 fc 82 bc 4c 8b d9 3d
       -0.09192277 -0.06604973 -0.015989617 0.10622272
0001d0 57 c7 61 3c 65 b2 e1 bc a3 21 49 3d 99 e0 26 bd
       0.0137804365 -0.027550885 0.049104344 -0.040741537
0001e0 0d bd 7b bd 6f c8 ac 3d d6 7c 3b bd 3b 70 a5 bc
       -0.06145959 0.08436667 -0.04577335 -0.020195117
0001f0 2f a2 db bd cf 06 af 3d 81 ce 9b 3d 52 6f b8 3c
       -0.107242934 0.085462205 0.07607747 0.02251402
000200 76 d1 aa bd b2 7f ef bd 62 58 de bd f8 81 84 3d
       -0.08340733 -0.11694278 -0.108567014 0.06470102
000210 9f 79 1e 3d 34 f6 91 3d b6 59 2d 3d 3c 14 db 3c
       0.038690206 0.07127038 0.042321883 0.026743047
000220 45 0d 81 ba 76 22 a4 bd 78 d5 b8 bd 1f c3 c9 bd
       -0.0009845874 -0.080143854 -0.09025091 -0.098516695
000230 e2 65 30 3d 3a 3b 54 bd 64 41 ae bc 5c 35 78 bd
       0.043065913 -0.051814295 -0.021271415 -0.060597762
000240 81 94 89 bc bf 59 a5 bd 2d 81 99 bd cd 72 16 3d
       -0.016794445 -0.08073758 -0.074953414 0.036730576
000250 85 8f 0d bd 8b 82 84 3d 30 5d aa bc 20 af a0 bd
       -0.0345607 0.064702116 -0.020796388 -0.078459024
000260 8f a6 8c bc 48 66 41 bd b0 e8 04 bd 15 ec cf bd
       -0.017169265 -0.047216684 -0.03244847 -0.10152451
000270 6d fc 80 3d 9f 2a 95 bd 10 7a 56 3d a1 a7 3f 3d
       0.062981464 -0.0728352 0.0523625 0.046790723
000280 ab 0d a1 3d bf 0f a2 bd 22 c9 a1 3d 36 54 3c bd
       0.07863935 -0.079131596 0.07899691 -0.045978747
000290 42 02 29 3d 37 70 ca 3d 94 61 20 bc 5c 1c 0e ba
       0.04126192 0.098846845 -0.009788889 -0.0005421096
0002a0 9c 5b df bc 40 4b b3 bd 63 50 4f 3d cb 4e d6 bd
       -0.027265362 -0.08754587 0.050613772 -0.10464247
0002b0 3b 05 86 3d 74 8c a1 3d 84 2f cc 3d 70 ca cb bc
       0.065439664 0.078881174 0.099700004 -0.024876803
0002c0 58 60 b1 bd ce 1c c2 3c 9b 83 6e 3d fa dd d6 bd
       -0.08660954 0.023695376 0.058230978 -0.104915574
0002d0 76 20 cf bc 04 29 85 bd 70 14 3d bc 95 94 4d bd
       -0.025284033 -0.06501964 -0.011540517 -0.050190527
0002e0 b7 89 2a bd 10 a5 f7 bc 46 5c d0 bd 46 16 b4 3d
       -0.04163524 -0.030230075 -0.1017385 0.08793311
0002f0 07 52 bb 3d 9c e8 89 bc 00 55 4d bc 1f 66 32 bd
       0.09146505 -0.01683455 -0.012532473 -0.04355442
000300 16 4a c2 bd bb ba d0 bd 66 97 24 3d 35 cb 7e bd
       -0.09486787 -0.10191866 0.040183447 -0.062205512
000310 75 c0 8d bd aa 7f cd bb 01 34 1d bd 55 35 1d bd
       -0.06921474 -0.0062713223 -0.038379673 -0.03838094
000320 e6 a8 81 ba ce 0b ab bc 90 70 17 bd 5c ec 62 bd
       -0.0009892255 -0.020879652 -0.036972582 -0.05540119
000330 40 9f ad bd 93 27 b6 3d 0c 68 2c bd 2d 9a c7 3c
       -0.0847764 0.08894267 -0.042091414 0.024365509
000340 f2 7e 21 bd fb 51 ae 3b 7d f4 c0 3d 14 6e 43 3d
       -0.039427705 0.0053198314 0.094216324 0.0477124
000350 7e 52 b3 bd 17 d6 f7 3c f7 ee bc 3d 39 72 c5 3c
       -0.087559685 0.030253453 0.092252664 0.024102317
000360 d2 ee 8f 3d 1c 1a d4 3d e2 d4 86 bc 86 c6 b0 3c
       0.07027973 0.103565425 -0.016458932 0.021579038
000370 66 b6 94 bd 71 ce 9c bc c8 67 95 3d 05 f2 4b 3d
       -0.07261352 -0.019141408 0.07295185 0.049791355
000380 e6 6a 91 bd 0d 1c ad bd e2 85 93 bd a2 0b d5 bd
       -0.071004674 -0.08452616 -0.072032705 -0.104026094
000390 7b 94 a6 bd 6e 1e d6 bc 83 e1 91 3d ba 7c 90 3c
       -0.08133789 -0.026137557 0.07123091 0.0176376
0003a0 70 22 a4 bd cf 2e ad bd 2d e9 44 3d 68 8f a9 bd
       -0.08014381 -0.08456194 0.048073936 -0.08279306
0003b0 4d a3 8d bc 41 1a 45 3d 5a d3 54 bd 6c b4 5c bc
       -0.017289782 0.04812074 -0.051959373 -0.01347075
0003c0 e3 35 2b bc b1 54 d2 bc 4b 3c 62 bd d9 68 c0 bd
       -0.010449859 -0.02567515 -0.05523328 -0.09394998
0003d0 8d 7f ae bd c6 2f 67 bd cf e6 d0 3d 33 7f 50 bd
       -0.08520422 -0.056442045 0.10200273 -0.050902557
0003e0 2c 54 8f bd f8 bf b8 3c fc b0 de 3c 24 71 67 3d
       -0.069984764 0.022552475 0.027184002 0.056504384
0003f0 7e 85 a3 3d fc 36 70 3d 82 0d d6 bd 4b 55 1b 3c
       0.07984446 0.058646187 -0.10451795 0.009480785

block_1.2.bias f4 [10]
000000 f3 fa e1 3e ca 74 7e bd 63 6c 89 bd cd 84 ce 3e
       0.44136772 -0.062123097 -0.06710126 0.40335694
000010 da d5 fd bd a5 6c 30 3d de 60 95 3e 57 38 42 3d
       -0.123943046 0.04307236 0.29175466 0.04741701
000020 b9 de a2 3e 7a 2c 42 3c
       0.3181055 0.011851424

block_2.0.weight f4 [10, 10, 3, 3]
000000 b0 b0 15 3c 65 40 d8 bd a6 1b ae bd f8 5f 18 bb
       0.009136364 -0.10559157 -0.08501367 -0.0023250561
000010 04 a7 6e 3c 91 1a 61 3d 6c 3a ab bd b8 c0 d6 3c
       0.014566187 0.054956976 -0.083607525 0.026214942
000020 cc 28 4e 3d 27 ca 6f 3d 77 7d c9 bd 2b 4f 24 bd
       0.050331876 0.058542397 -0.09838384 -0.040114563
000030 88 d5 b9 bd 31 4a 89 bd dc 8b 71 3d b3 b3 7e bc
       -0.09073931 -0.06703604 0.05897127 -0.015545773
000040 d3 be 3c 3d 73 e0 7a bd 49 bb 84 3c 13 a3 82 bd
       0.04608042 -0.061249208 0.016202586 -0.0637876
000050 00 31 58 3d 1d c5 3c bd 41 75 d8 bc 33 41 bb bd
       0.052781105 -0.04608642 -0.026423099 -0.09143295
000060 19 07 7e 39 eb ef cc 3d 81 56 51 3d 57 44 a4 bd
       0.00024225972 0.10006698 0.051107887 -0.08020847
000070 ae 10 d6 3c 17 71 37 3d 5c dc ec bd d9 42 e2 3d
       0.026131 0.044785585 -0.11565468 0.110479064
000080 b4 a4 4e 3d f6 ca 14 3d e9 a8 5c bd 2d fe b3 bc
       0.050450042 0.03632637 -0.053872023 -0.021971786
000090 11 9f 74 3c 54 74 1f 3d c6 57 b2 3c 48 78 59 bd
       0.0149305025 0.0389293 0.02177037 -0.053093225
0000a0 64 26 d4 3d a2 7b 8c bc 17 30 89 bd e5 0b 46 bd
       0.10358885 -0.017148796 -0.066986255 -0.048351187
0000b0 ce 47 d1 3d d9 d7 a7 39 3a 2a 24 bc 95 c2 86 bd
       0.10218774 0.0003201354 -0.010019833 -0.06580082
0000c0 83 b5 02 bd 7c 0b 94 bd 93 65 bb bd 14 9b 24 3d
       -0.031911384 -0.07228753 -0.09150233 0.040186957
0000d0 57 3d d2 3d 5a 67 ee 3d 45 5d fc bd f4 aa 21 3d
       0.10265606 0.116408065 -0.12322477 0.039469674
0000e0 ce 64 a3 bd be a4 ff 3c a1 14 8a 3d ef 6c 98 3d
       -0.07978211 0.031206485 0.06742216 0.074426524
0000f0 f8 aa ca 3d ae e2 66 3d bf 97 47 bd 0b 0b 27 3d
       0.09895891 0.056368522 -0.0487287 0.040782016
000100 7a 83 1b bd d0 db 9c 3c bc 6c 0b bd 22 33 5c bb
       -0.037967183 0.019147784 -0.034039244 -0.0033599813
000110 34 77 f4 bd 91 f7 cf bb 99 dd 8e bd 6c e3 a3 bd
       -0.11936799 -0.006346651 -0.0697586 -0.08002362
000120 c6 d5 d8 bd d0 db a3 bd 96 4c f6 3c 5f 9a ed 3c
       -0.10587649 -0.0800091 0.030065816 0.029004274
000130 98 b7 e9 3d 75 fd 95 3d 76 e9 a4 bd 49 2a bf bd
       0.11411971 0.07323734 -0.08052342 -0.09334237
000140 0a e2 39 3d 5c 8a 03 3e 71 93 2a bc 12 11 2e 3c
       0.045381583 0.12845749 -0.010411129 0.010624187
000150 dc 5c 30 3e ad 7a ae 3d 63 a0 ac bd 57 cb de 3d
       0.17222923 0.08519492 -0.08429029 0.10878628
000160 e8 47 b1 3d d3 2d 8a 3d c5 63 b6 3c bf 63 91 be
       0.08656293 0.067470215 0.02226437 -0.28396413
000170 b6 10 aa be d7 d6 8b 3e db f1 3b be 2b 72 93 bc
       -0.33215874 0.27312347 -0.1835398 -0.017998775
000180 ba 5c c3 3d 2c 43 1f 3e c2 43 61 bc 32 1c cb 3c
       0.095391706 0.15552968 -0.013749065 0.024793718
000190 2e a3 5e bd c2 7d 0b be e2 ab 52 bd 84 45 ac 3d
       -0.05435484 -0.13622192 -0.05143345 0.084116966
0001a0 cb ee 54 bd a9 46 fe 3c 90 cc 3b bd 6c 8b 34 3d
       -0.051985543 0.031039553 -0.045849383 0.044078276
0001b0 e8 43 7d 3d 6f bc 15 3d 09 0d 51 bd b8 d5 af bd
       0.06183234 0.036556657 -0.051037822 -0.085856855
0001c0 7b e1 8e 3b 3c e7 7a bd 44 d6 b1 3d a5 2d cf bd
       0.0043603755 -0.06125568 0.08683446 -0.10116128
0001d0 b8 f4 40 3d af f4 5f 3c 41 b4 9f 3e 33 c9 81 3e
       0.047108382 0.013669177 0.3119221 0.25348815
0001e0 54 19 46 bd 11 98 4e 3f c0 87 96 3e 4e b2 4c bf
       -0.048364 0.80700785 0.29400444 -0.7995957
0001f0 5c 85 29 be 60 53 4c be d0 cf bd 3b 36 f7 d6 3d
       -0.16554779 -0.1995368 0.0057925954 0.104963705
000200 bd 36 a7 bd 19 1b 77 bd 03 13 f2 3c 3b 3f 0f bc
       -0.081647374 -0.060328577 0.029550081 -0.008743103
000210 b2 ea 8c 3c 79 40 d3 bd 0b 3c 0f bd 65 eb 3d 3d
       0.017201755 -0.103150316 -0.03496937 0.046367068
000220 9d 9d a6 be bd 30 dc bd be 36 86 3e fc 3d e8 3d
       -0.32542124 -0.107514836 0.2621364 0.113399476
000230 a5 30 44 3d 9d 24 d9 3d f3 99 31 3e 50 6d c7 3d
       0.047897954 0.106026866 0.17343883 0.097376466
000240 16 28 2a bf 65 3e 2b bd 8b 55 09 3e 1b cd 02 bf
       -0.66467416 -0.04180755 0.13411538 -0.51094216
000250 5a 43 bc 3e 83 98 fc 3e 4f a9 bd be a3 8b 1a 3d
       0.36770135 0.49335107 -0.37043235 0.037730824
000260 1c 73 62 bd 93 8a 4f be 57 c2 e6 be e2 fb 79 bc
       -0.055285558 -0.20267706 -0.45070145 -0.015257807
000270 c5 48 9a be 34 b3 0b bc 51 74 1d bd 66 00 8c be
       -0.30133644 -0.008526612 -0.038441006 -0.27344054
000280 9b 8c 16 bd 28 c0 2e bd 89 8f d6 be 2a c4 63 3d
       -0.036755186 -0.042663723 -0.41906384 0.055607
000290 88 a2 a5 3e c0 43 d7 bd ba 5b aa 3e ad 92 aa 3e
       0.32350564 -0.10510969 0.33273107 0.3331503
0002a0 38 1b 57 be e0 bc 06 be 22 e2 20 be 51 c7 98 3e
       -0.21006477 -0.13157988 -0.15711263 0.29839566
0002b0 f9 92 60 be d4 90 4b be 0e 86 bd 3d 7c 09 91 bd
       -0.21931066 -0.19879466 0.092540845 -0.07081887
0002c0 cf e6 34 be 6e ef f2 bd 3d ea 22 3e 26 a7 cc 3d
       -0.17666171 -0.11862074 0.15909667 0.099928185
0002d0 5b 40 04 bd 61 de 93 3d e5 9f 60 3d f4 4a 8d bd
       -0.032287937 0.0722015 0.054839987 -0.06899062
0002e0 23 3d d3 bd 56 0a c4 bd e0 74 99 bd 2b 70 74 bd
       -0.10314395 -0.09572284 -0.07492995 -0.059677284
0002f0 db a3 11 bd b2 f4 c9 bc 21 9d 58 bd 88 e6 09 bd
       -0.035556655 -0.024652813 -0.052884225 -0.033667117
000300 9a 97 15 bd c0 7b d4 3d eb 4a 1d bd 07 59 9a bd
       -0.03652153 0.10375166 -0.038401525 -0.07536512
000310 3d 52 33 3d 03 e9 bb bb b4 46 a5 3d 1c f4 86 3d
       0.0437796 -0.0057345643 0.08070126 0.06589529
000320 97 76 c6 3d 3d 2a 9e bd 4d b5 8a 3d 75 31 b5 3d
       0.09690588 -0.077229 0.06772862 0.08847324
000330 81 52 55 bd 00 5b c6 3d 5c d2 a1 3d 2c a2 c9 bc
       -0.052080635 0.096853256 0.07901451 -0.024613462
000340 95 52 5e 3d 70 2e 34 bc f7 4d f3 bd a9 3e 43 3d
       0.054277975 -0.0109974 -0.11880105 0.04766718
000350 38 68 4f 3d 2f df fb bd e5 96 a9 3c 0a a6 0d be
       0.0506365 -0.12298428 0.020701835 -0.1383287
000360 cf 7b ac 3d 85 04 ce 3d 41 fb 7f 3c a2 73 85 bd
       0.08422052 0.10059456 0.015623868 -0.06516196
000370 4b 7e 79 3d fb 08 4e 3c f8 35 7e 3c 1a f3 e6 3c
       0.060911458 0.012575383 0.015515797 0.028192092
000380 3a 90 7e 3d 1d 23 12 bd 88 88 d6 bc e8 87 d5 3c
       0.062149264 -0.035678018 -0.02618815 0.026065782
000390 90 dc 2f 3c 7b f1 a2 3d e7 10 03 bd 1c a7 b4 bc
       0.010733739 0.07956215 -0.03199854 -0.02205234
0003a0 5d e9 ab 3c f1 13 0f bc 51 5f 8d 3d 9a c1 9a bc
       0.0209853 -0.008732782 0.06902946 -0.018891145
0003b0 10 96 9d bd c0 f2 6c bc 44 d0 56 bd 8b ac 0d 3d
       -0.07694638 -0.014462173 -0.05244471 0.034588378
0003c0 15 77 82 bd 8c f2 06 be 4e db 65 bd ce 83 c7 ba
       -0.06370369 -0.13178462 -0.05611735 -0.0015221776
0003d0 49 35 2e bd ee 3b cd 3d 23 a5 90 bc 0a 82 9d 3d
       -0.042531285 0.10021196 -0.017656868 0.076908186
0003e0 bd fc 0c 3d 1d ab e4 bd 43 78 95 3c 55 86 7e 3d
       0.034420718 -0.1116545 0.018245822 0.062139828
0003f0 4e ff c2 bd 61 62 a4 bd fe ff e0 3d 5b a0 76 3d
       -0.09521352 -0.08026577 0.10986327 0.06021152

block_2.0.bias f4 [10]
000000 a4 9b be bd 75 de 29 3e 8e 5d 22 bd fa b3 20 be
       -0.0930703 0.16588767 -0.039640002 -0.15693656
000010 c6 70 0d bd e6 ef 1d be bd e6 74 3e a9 b2 f0 3e
       -0.034531377 -0.15423545 0.23916145 0.47011307
000020 51 fa 44 3f 0d 87 91 bd
       0.7694445 -0.07105837

block_2.2.weight f4 [10, 10, 3, 3]
000000 88 86 42 bd 19 56 0a be 53 60 77 bc a7 ab 5d bd
       -0.04749158 -0.13509406 -0.015098649 -0.05411878
000010 20 a6 5a bb 04 fc 63 3b 4d 93 39 3c 98 da f8 bd
       -0.0033363178 0.0034787664 0.011326623 -0.121510684
000020 57 e6 c9 3d 58 aa 12 3c 05 08 95 be 75 8c 23 be
       0.09858387 0.008951746 -0.2910768 -0.15971549
000030 23 d6 d9 bd 21 69 83 bd 65 fc e1 be 5a 94 c8 3e
       -0.106365465 -0.06416536 -0.44137874 0.39175683
000040 f3 90 0c 3e 17 e1 44 bf aa 83 0d 3c 3a 89 18 3a
       0.13727169 -0.7690596 0.008637348 0.0005818788
000050 23 32 a9 3d c2 f5 ef bd cc 8a 83 3d 7d df 79 3c
       0.08261516 -0.117167965 0.06422958 0.015251038
000060 53 62 13 bd 64 42 a9 3d b1 f5 dd bd 38 1a e1 bd
       -0.03598244 0.08264616 -0.108378775 -0.10991329
000070 e3 17 75 3d 8b 9d 9a bd 6c 98 8d 3d e2 53 4b bb
       0.059837233 -0.0754958 0.06913838 -0.003102534
000080 24 7b 43 be 9c 85 91 bc 27 d7 96 3d 84 36 67 be
       -0.19089943 -0.017763905 0.07365256 -0.2257939
000090 15 c8 85 bd 56 54 fc ba 8c 7d c3 3c 74 59 b7 bc
       -0.06532303 -0.0019251208 0.023863576 -0.022381522
0000a0 6e 0a 20 bd 96 dc 1f bc 7f 4c 35 bd 8e f5 0a bd
       -0.039072447 -0.009757182 -0.044262405 -0.033925585
0000b0 fc a4 14 be fb 22 16 be 02 7e 1d be 77 cf 80 3d
       -0.14516062 -0.14661781 -0.153801 0.06289571
0000c0 b5 98 ba bd 09 8a 60 bd 2b 8e 27 3d 48 5d 35 bd
       -0.09111158 -0.05481914 0.040907066 -0.044278413
0000d0 5a 24 5d bd a6 b1 a6 bd 50 bc cf be c4 4a 1e be
       -0.053989746 -0.081393525 -0.4057336 -0.15458208
0000e0 1d 00 f1 be c4 71 59 be 19 14 a9 3d 97 76 c2 3e
       -0.470704 -0.21234804 0.082557864 0.37981102
0000f0 fd 7e 92 be ec 70 81 3e 89 0a 9d 3e 70 dd b7 3e
       -0.2861251 0.25281465 0.306721 0.3591113
000100 fc ce bc 3d ca 3e 47 bd 75 9c 4b 3d b6 7a c9 bd
       0.09219167 -0.048643865 0.049709756 -0.098378584
000110 84 96 4d bd 19 0f c3 3b dc 24 58 be a3 f8 72 bd
       -0.05019237 0.0059527275 -0.2110781 -0.05931915
000120 6e 64 bc 3e 3b cc 46 bd 68 fc 7f 3d 44 11 12 be
       0.36795372 -0.048534613 0.062496573 -0.14264399
000130 e4 3a c2 be c6 df 69 3e e7 3c ad be 41 c0 c2 be
       -0.37935555 0.22839269 -0.33835527 -0.38037303
000140 72 e3 97 bd 2e aa 76 bd 45 21 e3 3d 83 ad ed bc
       -0.074164286 -0.06022089 0.1109033 -0.0290134
000150 b7 a5 fe 3c 06 a2 e1 bc 9d 81 cb bd c3 a8 ff 3c
       0.031084878 -0.02754308 -0.09936831 0.031208402
000160 ca 20 5c bd ac 80 e5 bd 91 47 c0 3c b3 de 90 bc
       -0.053742208 -0.11206183 0.023471626 -0.017684316
000170 a3 3d 8d bd 12 9b aa bd 05 df dd bb 3c cd eb bd
       -0.06896522 -0.083303586 -0.0067709708 -0.11513755
000180 81 75 d0 3d b9 d8 f0 bc 5c 81 e2 bc eb 76 1f 3c
       0.10178662 -0.029400216 -0.027649574 0.009732942
000190 c8 69 11 3e c2 6c 38 be d3 c3 2a bd a3 a5 81 be
       0.14200509 -0.18010238 -0.04169066 -0.25321683
0001a0 c9 2b c4 3e 83 de 9e bd ba a0 2c bf 21 3d b0 3e
       0.38314655 -0.077572845 -0.6743275 0.34421638
0001b0 35 13 97 bc b2 b6 bb bc cb 06 b4 3d 24 64 5f 3d
       -0.018441776 -0.022914264 0.08790358 0.05453886
0001c0 a0 63 b3 bd 6c 7f 36 3c d6 9f 5e bd a5 18 17 be
       -0.08759236 0.011138778 -0.05435165 -0.14755495
0001d0 a3 63 ff bc 74 9c 13 bd 86 ea 5a 3a 52 41 28 3d
       -0.03117544 -0.036037877 0.0008350987 0.04107792
0001e0 14 2e b3 3d 79 38 96 be 22 73 35 be 83 d3 cc 3d
       0.08749023 -0.2933996 -0.17719701 0.1000128
0001f0 9d 08 77 be 9a 05 bb bd a4 13 84 bc 3f 16 0d 3d
       -0.2412438 -0.09131928 -0.016122647 0.034445044
000200 73 9c 2c 3d 18 4c 5f 3c 92 15 af bd 21 50 02 3d
       0.04214139 0.013628982 -0.08549036 0.031814698
000210 e5 28 01 3d dd 7b a8 bd f5 83 e2 bd 7e 1c 95 3b
       0.03153314 -0.0822675 -0.11060325 0.0045505157
000220 1c fd 11 3e 60 7c c7 3c e5 50 de 3d e1 c5 47 3a
       0.1425671 0.024351299 0.10855273 0.0007620734
000230 23 92 69 3d 12 17 b6 3e fc 7c 40 3e 1f 7d a8 bd
       0.057024132 0.35564476 0.18797678 -0.0822699
000240 7c 09 90 bd 16 96 65 be 32 f1 4d 3e c0 a2 6b bd
       -0.07033059 -0.22420534 0.2011154 -0.057528257
000250 9c c4 5e be 4e 4c c5 3e ed 7b 87 3e b3 4d 73 be
       -0.21754688 0.38534778 0.26461735 -0.23760109
000260 e4 51 46 bd 49 cf ba bd 04 3b bd bd 98 6f d0 3d
       -0.04841794 -0.09121568 -0.09239772 0.10177535
000270 4f 43 13 bb 9d bb a6 be 23 af 18 3e 44 af 90 3d
       -0.002247054 -0.32565013 0.1491056 0.07064679
000280 4b a1 0f bf fb d5 84 3e 88 ce 65 be 5d af c0 bd
       -0.5610549 0.25944504 -0.22442067 -0.09408448
000290 b0 72 79 be a2 09 8a 3d b9 6b ed 3d ff 42 02 bf
       -0.24360156 0.067401186 0.11592812 -0.5088348
0002a0 8c 52 d1 3d c0 66 30 3e 5e c3 18 be fd ab 01 be
       0.10220823 0.17226696 -0.14918277 -0.12663265
0002b0 97 3c a7 3d e7 12 35 3e ac c9 12 be 60 5f 08 be
       0.081658535 0.17682992 -0.14334744 -0.13317633
0002c0 dc c9 7c 3d 18 02 89 bd 1e c7 a8 bd 01 9a 9f bd
       0.061715946 -0.066898525 -0.082411036 -0.07793046
0002d0 2d 8a 0b 3e 81 58 3c 3d fb 4c 24 bc 6b 73 8d bd
       0.13626929 0.04598284 -0.010028119 -0.0690678
0002e0 ee e4 9f bc 43 b3 a9 3c e2 7f b0 3c e8 ff d9 3d
       -0.019518342 0.020715361 0.021545354 0.10644513
0002f0 b8 58 09 3d bb b2 2b bf c0 7c 23 be 46 06 cf be
       0.033531874 -0.67069596 -0.15965557 -0.40434474
000300 0c e0 9b be 89 92 d9 3e 62 ae 3b be 8b 12 6a be
       -0.30444372 0.4249461 -0.1832824 -0.22858636
000310 79 a0 01 3e 17 6c 08 3f 94 02 85 3b 25 e4 e6 bc
       0.12658872 0.5328993 0.004059145 -0.02818496
000320 d3 fd c5 bc 87 1e c3 3b e2 fc fa 3c 32 68 85 3d
       -0.024168884 0.005954567 0.030638162 0.06514014
000330 27 44 31 3b 64 db 85 bd b0 bd a5 3d 2c fb c9 be
       0.0027048679 -0.06535986 0.08092821 -0.3944944
000340 06 ec 0d 3e bc 7f d3 3a 8d a7 9d 3e 6a a6 1f 3e
       0.13859567 0.001613609 0.30791894 0.15590826
000350 36 de 12 be 65 fe 9e 3d 66 ca 05 be ee be 18 bd
       -0.14342579 0.07763366 -0.1306549 -0.03729146
000360 ee 2d 9a 3d 7f db ca bd 69 de 74 bd 47 93 a2 bc
       0.07528292 -0.09905147 -0.05978242 -0.019845618
000370 72 5b 92 3d 18 c8 d3 bd 98 a0 ce 3d 25 e8 81 3d
       0.07146348 -0.10340899 0.100892246 0.06343106
000380 12 2b 23 3d 4d 3b 14 3e dd c0 ef 3b 4c d8 81 be
       0.039835997 0.14475746 0.0073166923 -0.25360334
000390 4b 08 2b 3e b9 2e 1d bc 63 9a 22 be 3f 86 c2 3c
       0.16702382 -0.009593659 -0.15879206 0.023745654
0003a0 d5 0c 68 bc 5f 00 7d be 72 90 53 bf 9a ba 08 be
       -0.014163216 -0.24707173 -0.8264228 -0.13352433
0003b0 92 c4 84 3e 70 07 07 bf c6 84 42 be 17 c2 fc bd
       0.2593122 -0.52745724 -0.18995962 -0.12341707
0003c0 0a 72 27 be 41 e1 5d 3d 24 ed 55 3e 0b 14 dd 3d
       -0.16352096 0.054169897 0.20891243 0.107948385
0003d0 d6 6d 1b 3f 08 31 ba 3d ba e5 6e be 3e 94 2c 3e
       0.6071447 0.09091383 -0.23329821 0.16853425
0003e0 fa c2 0a be c0 db b4 bb 23 bc 61 be 5d 24 fb bd
       -0.1355094 -0.0055193603 -0.22044425 -0.12262795
0003f0 38 77 40 be fe 8e aa bd df 27 b0 bd ea 9d b9 bd
       -0.18795478 -0.08328055 -0.08601355 -0.09063323

block_2.2.bias f4 [10]
000000 4c 16 b5 3e 30 df 3c 3c 12 2a 29 3e f6 6d 6b 3d
       0.35368574 0.011527821 0.16519955 0.057477914
000010 48 9a b4 bd 3b ba b9 3e 85 55 bb 3d 73 ea c9 bd
       -0.08818489 0.36274895 0.09147171 -0.09859171
000020 9f 98 48 bc d7 53 fd bd
       -0.012243419 -0.12369507

classifier.1.weight f4 [10, 490]
000000 d4 f3 7d 3c 91 99 5d bd c5 f9 a2 3d b2 1d 0a be
       0.015500028 -0.05410153 0.07957796 -0.1348789
000010 13 47 c2 3d d3 c8 d9 3c 75 00 44 3d 74 35 64 3d
       0.094862126 0.026585018 0.047852 0.05571504
000020 b5 93 73 3e 93 40 66 3d 34 13 62 be 86 4c 02 3e
       0.23786815 0.056213927 -0.22077638 0.12724504
000030 f9 9e 07 3e a9 02 57 3d 91 d9 98 3c 76 37 bc 3d
       0.13244237 0.05249277 0.018658431 0.09190266
000040 e0 55 e0 3d 9a 41 ce bd 8d 47 b6 3d 68 0a df 3c
       0.10953879 -0.10071106 0.08900366 0.027226642
000050 2d 9f fd bd 3a 3c d2 bc 20 71 f2 3d 1a fd 41 3c
       -0.12383876 -0.025663484 0.11837983 0.011840129
000060 44 93 bc 3b de 12 30 3e d8 82 0d 3d fd 08 0d be
       0.00575486 0.17194697 0.03454861 -0.1377296
000070 3d 0c 54 bd 8f 36 9a 3c f5 be 24 bd a3 66 99 bc
       -0.051769484 0.018824844 -0.040221173 -0.018725699
000080 10 79 04 3e 10 2c 01 be 13 39 26 3c 34 04 08 3d
       0.12936807 -0.12614465 0.0101454435 0.033207133
000090 a7 e3 fa bd a7 bc 73 bd a3 9f 0b be 35 78 80 bd
       -0.122504525 -0.059506085 -0.13635115 -0.06272928
0000a0 fb 2c 29 3e 48 1d ba bd 47 2c 4b 3d b9 e7 01 be
       0.16521065 -0.09087616 0.049602773 -0.12686051
0000b0 ed e9 2b be c7 da cf 3c 8d 0d 86 bc 5c 75 98 3e
       -0.16788454 0.025372876 -0.016363883 0.29777038
0000c0 8f 6d c1 bd 12 2e 54 3e 46 96 d3 3d 3f 7e 33 be
       -0.09444725 0.207207 0.10331397 -0.17528628
0000d0 2b d8 22 be 90 e0 ff bb a6 0b 11 be dc 61 05 3e
       -0.15902774 -0.0078087524 -0.141646 0.13025612
0000e0 fb bd c4 3d 53 60 28 3d 9e 88 47 be cf af bc bc
       0.096065484 0.041107487 -0.19485709 -0.02303305
0000f0 14 00 e7 3c 54 35 c9 3c 41 0d 71 bd f3 03 a6 3d
       0.02819828 0.024561562 -0.05885053 0.08106222
000100 07 d8 28 3e 6d d5 10 be df 19 90 bc a0 ae 3f bd
       0.16488658 -0.14143915 -0.017590461 -0.046797395
000110 fc 26 0e 3e f1 5d 63 3d f5 4a ee 3d eb d8 32 bd
       0.13882059 0.05550951 0.11635391 -0.0436639
000120 33 47 2e 3d fe c8 b6 bd e9 43 98 bd c6 af 69 3e
       0.04254837 -0.08925055 -0.07434828 0.22820958
000130 9a 4c 5a bd 73 50 02 3d 8b 6e c4 bd c9 80 8e bd
       -0.05329571 0.031815004 -0.09591397 -0.069581576
000140 b4 5c d0 bd 15 83 c1 3d 07 f0 7b 3e 61 6e 07 be
       -0.10173932 0.0944883 0.24603282 -0.132257
000150 31 e3 51 be ae 0b b9 3c e1 3b 26 be d2 6b 10 be
       -0.20496823 0.022588577 -0.1623378 -0.1410363
000160 64 85 0a 3c 8a d3 bd bc cb 46 3e 3d cc 55 08 be
       0.008454654 -0.023172159 0.046454232 -0.13313979
000170 fa a7 f8 bc 8c 13 1c 3e 18 09 d3 bc bf c8 4f bd
       -0.030353535 0.15241832 -0.025761172 -0.050728556
000180 24 2b f4 bb 92 ab 9f 3d 8c a4 28 3d 82 b4 bd bd
       -0.007451432 0.07796396 0.04117255 -0.09262945
000190 dd 2a dd 3d ff 63 25 3d f4 b6 45 3e 05 11 33 3e
       0.10799191 0.040378567 0.19308072 0.17486961
0001a0 7b 9d f2 3b c0 10 77 3e ba e7 ea 3d ef a1 9a bb
       0.007404027 0.24127483 0.114699796 -0.004719011
0001b0 63 72 d5 3c 7f 13 fd bc 04 79 58 3e 9c 20 84 3c
       0.02605552 -0.030893086 0.21139914 0.01612883
0001c0 9c b8 dc 3d 72 3d 67 3e 61 3a a5 3e 16 86 51 3b
       0.10777399 0.22582033 0.32271102 0.003197079
0001d0 a6 8a 6d 3d d9 5d db bc ea 2c b4 bc 45 88 eb 3c
       0.057993554 -0.026778148 -0.021994073 0.028751502
0001e0 25 4f 1c be a0 5a 91 3c 32 bb b9 bd 9f 3b 84 bd
       -0.15264566 0.017743409 -0.09068908 -0.06456684
0001f0 68 f1 e4 3d ae 9d 89 bd 30 3f 43 be b1 cc 1c bd
       0.11178857 -0.06719528 -0.19067073 -0.038281146
000200 18 6e ac 3c c8 b2 4c bd d1 f3 0a be 13 24 3f bc
       0.02104859 -0.049975187 -0.13569571 -0.011666316
000210 bb 4d a5 3c 18 01 d9 bd 70 1c 00 3e 10 df 7b 3d
       0.020178666 -0.10595912 0.12510848 0.061492026
000220 1f d0 e3 bd d6 a6 2d be 23 9f b7 bd d4 d7 0f 3d
       -0.1112368 -0.16958174 -0.089659 0.03511794
000230 c1 04 da bd 8b 3b e1 3d e3 f6 94 bc c9 85 07 be
       -0.10645438 0.10997685 -0.018184131 -0.13234629
000240 71 08 95 bc bb b6 d1 bd 28 08 79 bd 4c 2d 28 3e
       -0.018192502 -0.10239931 -0.060798794 0.1642353
000250 1f 0b 0d be e8 a5 90 bd 67 a9 66 bc 01 02 a1 3d
       -0.13773774 -0.07062894 -0.014078475 0.0786171
000260 57 5e 30 3d 4f ec 02 bd 50 b0 e6 bd 06 81 3f bd
       0.04305872 -0.031963643 -0.11264098 -0.046753906
000270 c8 28 b0 bd f3 1b 84 bc 64 84 0c 3c 3f 77 02 be
       -0.086015284 -0.016126608 0.008576486 -0.12740801
000280 93 e2 ee bd a8 50 29 be fc 0d 15 bd dc 82 6e bd
       -0.11664309 -0.16534674 -0.03639029 -0.058230266
000290 cb be 52 3d d3 7f 5a bd 73 04 95 bd b4 18 b0 3d
       0.051451486 -0.05334456 -0.07276239 0.08598462
0002a0 1c fb 9c 3b b6 f0 1e 3e ed 0d 4e bc 3b 82 14 3d
       0.0047906768 0.15521511 -0.012576562 0.03625701
0002b0 6c f3 9c 3c 59 5b b5 ba 12 18 18 3e fe 35 0b bc
       0.019159041 -0.0013836428 0.14852932 -0.008496759
0002c0 17 0a 6d 3e 21 94 3b bc 2a 7a 79 bd 36 64 47 bd
       0.2314838 -0.011448891 -0.06090752 -0.048679553
0002d0 04 00 8d bd a6 c9 46 3e ce 3f 33 bd b2 06 6c 3e
       -0.068847686 0.1941286 -0.04376202 0.23049429
0002e0 53 5d d6 bc 38 8d 9b bd 65 73 b0 bc 56 9c 94 bc
       -0.026167547 -0.07595295 -0.0215394 -0.018140953
0002f0 bd bc 0e 3e 50 bb 87 3c 3e c6 2a bc f7 db 9f bd
       0.13939185 0.01656881 -0.010423241 -0.07805627
000300 94 28 92 bc 58 c0 d0 bd 26 88 59 bd 37 e3 52 3d
       -0.017841615 -0.10192937 -0.053108357 0.05148622
000310 e3 8c 78 3c 5b 15 f5 3b d9 e8 ac bc 9c 9e 9e bc
       0.015170309 0.0074793524 -0.021107124 -0.01936274
000320 a8 89 05 3d 50 a8 3a 3d 51 61 22 bd 86 60 e0 3b
       0.032601982 0.04557067 -0.03964359 0.006847444
000330 f6 ff 8a bc c4 69 3f 3e a1 8b 4a 3e 96 53 81 3d
       -0.016967755 0.1869269 0.19779827 0.06314771
000340 36 99 b9 bd 5c ab c4 bc a1 84 84 3d 2f ab f9 3d
       -0.09062426 -0.024007492 0.064706095 0.12190854
000350 0e 55 a6 3b be a7 22 3e 63 cb 9e 3d bf a7 7f 3e
       0.0050760573 0.15884301 0.07753637 0.24966334
000360 75 f6 32 3e a8 6f ee 3d 5b e5 89 3c 06 18 20 be
       0.17476828 0.116423905 0.016832998 -0.15634164
000370 49 63 42 ba 70 ad 63 3d de 16 2f 3e 52 98 bf 3d
       -0.00074153073 0.055585325 0.17098567 0.09355225
000380 02 3c 67 3d 58 67 60 bd a8 34 b4 bd aa 86 ef 3c
       0.056453712 -0.054786056 -0.08799106 0.029239018
000390 c8 16 03 bd cf 2b aa bc 70 5e 39 bd 49 0c 5d bc
       -0.032004148 -0.020772843 -0.04525608 -0.013491699
0003a0 f2 9b a2 bd d8 ea 19 3c 4f ff 1a 3a 49 bd a3 3c
       -0.079399005 0.00939437 0.0005912678 0.01998772
0003b0 ad 15 9c bc 89 58 b9 bd fa c2 20 bd fc f0 6b bc
       -0.019053305 -0.0905009 -0.039248444 -0.014400717
0003c0 55 ae 2c 3d 47 96 2c bd ec d5 e4 bd 9f 74 8a bd
       0.042158443 -0.042135503 -0.11173615 -0.06760525
0003d0 e3 a2 fb bc ff c4 9d bc 3e 04 c3 3d f2 97 4b 3d
       -0.030717319 -0.019258974 0.095222935 0.049705453
0003e0 e6 fb 77 3d f1 23 14 3e b4 86 93 3e ad 86 a5 3d
       0.060542963 0.14466836 0.28813708 0.08082328
0003f0 f5 b9 77 3b cd 58 c6 bc 40 f4 93 3d a1 f7 1f 3e
       0.0037800048 -0.024212265 0.07224321 0.15621807

classifier.1.bias f4 [10]
000000 9a 86 ac 3d f5 82 11 be 17 51 e2 3e fc 35 66 bd
       0.08424111 -0.14210112 0.44202492 -0.056203827
000010 24 4d c0 be 2c 3b 1e be 15 8f 0f 3e 35 4f 55 3c
       -0.37558854 -0.1545226 0.14019425 0.013019373
000020 81 d3 15 3e a3 6c 09 be
       0.14631464 -0.13420348
